Files already downloaded and verified
Files already downloaded and verified
4349563
----------------------------------------------------------------
        Layer (type)               Output Shape         Param #
================================================================
            Conv2d-1           [-1, 39, 16, 16]           5,733
       BatchNorm2d-2           [-1, 39, 16, 16]              78
              ReLU-3           [-1, 39, 16, 16]               0
         MaxPool2d-4             [-1, 39, 8, 8]               0
            Conv2d-5             [-1, 39, 8, 8]          13,689
       BatchNorm2d-6             [-1, 39, 8, 8]              78
              ReLU-7             [-1, 39, 8, 8]               0
            Conv2d-8             [-1, 39, 8, 8]          13,689
       BatchNorm2d-9             [-1, 39, 8, 8]              78
             ReLU-10             [-1, 39, 8, 8]               0
       BasicBlock-11             [-1, 39, 8, 8]               0
           Conv2d-12             [-1, 39, 8, 8]          13,689
      BatchNorm2d-13             [-1, 39, 8, 8]              78
             ReLU-14             [-1, 39, 8, 8]               0
           Conv2d-15             [-1, 39, 8, 8]          13,689
      BatchNorm2d-16             [-1, 39, 8, 8]              78
             ReLU-17             [-1, 39, 8, 8]               0
       BasicBlock-18             [-1, 39, 8, 8]               0
           Conv2d-19             [-1, 78, 4, 4]          27,378
      BatchNorm2d-20             [-1, 78, 4, 4]             156
             ReLU-21             [-1, 78, 4, 4]               0
           Conv2d-22             [-1, 78, 4, 4]          54,756
      BatchNorm2d-23             [-1, 78, 4, 4]             156
           Conv2d-24             [-1, 78, 4, 4]          12,168
      BatchNorm2d-25             [-1, 78, 4, 4]             156
             ReLU-26             [-1, 78, 4, 4]               0
       BasicBlock-27             [-1, 78, 4, 4]               0
           Conv2d-28             [-1, 78, 4, 4]          54,756
      BatchNorm2d-29             [-1, 78, 4, 4]             156
             ReLU-30             [-1, 78, 4, 4]               0
           Conv2d-31             [-1, 78, 4, 4]          54,756
      BatchNorm2d-32             [-1, 78, 4, 4]             156
             ReLU-33             [-1, 78, 4, 4]               0
       BasicBlock-34             [-1, 78, 4, 4]               0
           Conv2d-35            [-1, 156, 2, 2]         109,512
      BatchNorm2d-36            [-1, 156, 2, 2]             312
             ReLU-37            [-1, 156, 2, 2]               0
           Conv2d-38            [-1, 156, 2, 2]         219,024
      BatchNorm2d-39            [-1, 156, 2, 2]             312
           Conv2d-40            [-1, 156, 2, 2]          48,672
      BatchNorm2d-41            [-1, 156, 2, 2]             312
             ReLU-42            [-1, 156, 2, 2]               0
       BasicBlock-43            [-1, 156, 2, 2]               0
           Conv2d-44            [-1, 156, 2, 2]         219,024
      BatchNorm2d-45            [-1, 156, 2, 2]             312
             ReLU-46            [-1, 156, 2, 2]               0
           Conv2d-47            [-1, 156, 2, 2]         219,024
      BatchNorm2d-48            [-1, 156, 2, 2]             312
             ReLU-49            [-1, 156, 2, 2]               0
       BasicBlock-50            [-1, 156, 2, 2]               0
           Conv2d-51            [-1, 312, 1, 1]         438,048
      BatchNorm2d-52            [-1, 312, 1, 1]             624
             ReLU-53            [-1, 312, 1, 1]               0
           Conv2d-54            [-1, 312, 1, 1]         876,096
      BatchNorm2d-55            [-1, 312, 1, 1]             624
           Conv2d-56            [-1, 312, 1, 1]         194,688
      BatchNorm2d-57            [-1, 312, 1, 1]             624
             ReLU-58            [-1, 312, 1, 1]               0
       BasicBlock-59            [-1, 312, 1, 1]               0
           Conv2d-60            [-1, 312, 1, 1]         876,096
      BatchNorm2d-61            [-1, 312, 1, 1]             624
             ReLU-62            [-1, 312, 1, 1]               0
           Conv2d-63            [-1, 312, 1, 1]         876,096
      BatchNorm2d-64            [-1, 312, 1, 1]             624
             ReLU-65            [-1, 312, 1, 1]               0
       BasicBlock-66            [-1, 312, 1, 1]               0
AdaptiveAvgPool2d-67            [-1, 312, 1, 1]               0
           Linear-68                   [-1, 10]           3,130
           ResNet-69                   [-1, 10]               0
================================================================
Total params: 4,349,563
Trainable params: 4,349,563
Non-trainable params: 0
----------------------------------------------------------------
Input size (MB): 0.01
Forward/backward pass size (MB): 0.78
Params size (MB): 16.59
Estimated Total Size (MB): 17.39
----------------------------------------------------------------
Summary second time None
…
