device= cuda
Files already downloaded and verified
Files already downloaded and verified
New trainable parameters are 4999786
----------------------------------------------------------------
        Layer (type)               Output Shape         Param #
================================================================
            Conv2d-1           [-1, 32, 32, 32]           4,704
       BatchNorm2d-2           [-1, 32, 32, 32]              64
              ReLU-3           [-1, 32, 32, 32]               0
         MaxPool2d-4           [-1, 32, 32, 32]               0
            Conv2d-5           [-1, 64, 32, 32]          18,432
       BatchNorm2d-6           [-1, 64, 32, 32]             128
              ReLU-7           [-1, 64, 32, 32]               0
            Conv2d-8           [-1, 64, 32, 32]          36,864
       BatchNorm2d-9           [-1, 64, 32, 32]             128
           Conv2d-10           [-1, 64, 32, 32]           2,048
      BatchNorm2d-11           [-1, 64, 32, 32]             128
             ReLU-12           [-1, 64, 32, 32]               0
       BasicBlock-13           [-1, 64, 32, 32]               0
           Conv2d-14           [-1, 64, 16, 16]          36,864
      BatchNorm2d-15           [-1, 64, 16, 16]             128
             ReLU-16           [-1, 64, 16, 16]               0
           Conv2d-17           [-1, 64, 16, 16]          36,864
      BatchNorm2d-18           [-1, 64, 16, 16]             128
           Conv2d-19           [-1, 64, 16, 16]           4,096
      BatchNorm2d-20           [-1, 64, 16, 16]             128
             ReLU-21           [-1, 64, 16, 16]               0
       BasicBlock-22           [-1, 64, 16, 16]               0
           Conv2d-23           [-1, 96, 16, 16]          55,296
      BatchNorm2d-24           [-1, 96, 16, 16]             192
             ReLU-25           [-1, 96, 16, 16]               0
           Conv2d-26           [-1, 96, 16, 16]          82,944
      BatchNorm2d-27           [-1, 96, 16, 16]             192
           Conv2d-28           [-1, 96, 16, 16]           6,144
      BatchNorm2d-29           [-1, 96, 16, 16]             192
             ReLU-30           [-1, 96, 16, 16]               0
       BasicBlock-31           [-1, 96, 16, 16]               0
           Conv2d-32           [-1, 96, 16, 16]          82,944
      BatchNorm2d-33           [-1, 96, 16, 16]             192
             ReLU-34           [-1, 96, 16, 16]               0
           Conv2d-35           [-1, 96, 16, 16]          82,944
      BatchNorm2d-36           [-1, 96, 16, 16]             192
             ReLU-37           [-1, 96, 16, 16]               0
       BasicBlock-38           [-1, 96, 16, 16]               0
           Conv2d-39            [-1, 128, 8, 8]         110,592
      BatchNorm2d-40            [-1, 128, 8, 8]             256
             ReLU-41            [-1, 128, 8, 8]               0
           Conv2d-42            [-1, 128, 8, 8]         147,456
      BatchNorm2d-43            [-1, 128, 8, 8]             256
           Conv2d-44            [-1, 128, 8, 8]          12,288
      BatchNorm2d-45            [-1, 128, 8, 8]             256
             ReLU-46            [-1, 128, 8, 8]               0
       BasicBlock-47            [-1, 128, 8, 8]               0
           Conv2d-48            [-1, 192, 8, 8]         221,184
      BatchNorm2d-49            [-1, 192, 8, 8]             384
             ReLU-50            [-1, 192, 8, 8]               0
           Conv2d-51            [-1, 192, 8, 8]         331,776
      BatchNorm2d-52            [-1, 192, 8, 8]             384
           Conv2d-53            [-1, 192, 8, 8]          24,576
      BatchNorm2d-54            [-1, 192, 8, 8]             384
             ReLU-55            [-1, 192, 8, 8]               0
       BasicBlock-56            [-1, 192, 8, 8]               0
           Conv2d-57            [-1, 192, 4, 4]         331,776
      BatchNorm2d-58            [-1, 192, 4, 4]             384
             ReLU-59            [-1, 192, 4, 4]               0
           Conv2d-60            [-1, 192, 4, 4]         331,776
      BatchNorm2d-61            [-1, 192, 4, 4]             384
           Conv2d-62            [-1, 192, 4, 4]          36,864
      BatchNorm2d-63            [-1, 192, 4, 4]             384
             ReLU-64            [-1, 192, 4, 4]               0
       BasicBlock-65            [-1, 192, 4, 4]               0
           Conv2d-66            [-1, 192, 4, 4]         331,776
      BatchNorm2d-67            [-1, 192, 4, 4]             384
             ReLU-68            [-1, 192, 4, 4]               0
           Conv2d-69            [-1, 192, 4, 4]         331,776
      BatchNorm2d-70            [-1, 192, 4, 4]             384
             ReLU-71            [-1, 192, 4, 4]               0
       BasicBlock-72            [-1, 192, 4, 4]               0
           Conv2d-73            [-1, 256, 4, 4]         442,368
      BatchNorm2d-74            [-1, 256, 4, 4]             512
             ReLU-75            [-1, 256, 4, 4]               0
           Conv2d-76            [-1, 256, 4, 4]         589,824
      BatchNorm2d-77            [-1, 256, 4, 4]             512
           Conv2d-78            [-1, 256, 4, 4]          49,152
      BatchNorm2d-79            [-1, 256, 4, 4]             512
             ReLU-80            [-1, 256, 4, 4]               0
       BasicBlock-81            [-1, 256, 4, 4]               0
           Conv2d-82            [-1, 256, 2, 2]         589,824
      BatchNorm2d-83            [-1, 256, 2, 2]             512
             ReLU-84            [-1, 256, 2, 2]               0
           Conv2d-85            [-1, 256, 2, 2]         589,824
      BatchNorm2d-86            [-1, 256, 2, 2]             512
           Conv2d-87            [-1, 256, 2, 2]          65,536
      BatchNorm2d-88            [-1, 256, 2, 2]             512
             ReLU-89            [-1, 256, 2, 2]               0
       BasicBlock-90            [-1, 256, 2, 2]               0
AdaptiveAvgPool2d-91            [-1, 256, 1, 1]               0
           Linear-92                   [-1, 10]           2,570
ModifiedResNet18_with_true_8_layers-93                   [-1, 10]               0
================================================================
Total params: 4,999,786
Trainable params: 4,999,786
Non-trainable params: 0
----------------------------------------------------------------
Input size (MB): 0.01
Forward/backward pass size (MB): 11.76
Params size (MB): 19.07
Estimated Total Size (MB): 30.84
----------------------------------------------------------------
Summary second time None
…
