Files already downloaded and verified
Files already downloaded and verified
----------------------------------------------------------------
        Layer (type)               Output Shape         Param #
================================================================
            Conv2d-1           [-1, 64, 16, 16]           9,408
       BatchNorm2d-2           [-1, 64, 16, 16]             128
              ReLU-3           [-1, 64, 16, 16]               0
         MaxPool2d-4             [-1, 64, 8, 8]               0
            Conv2d-5             [-1, 64, 8, 8]          36,864
       BatchNorm2d-6             [-1, 64, 8, 8]             128
              ReLU-7             [-1, 64, 8, 8]               0
            Conv2d-8             [-1, 64, 8, 8]          36,864
       BatchNorm2d-9             [-1, 64, 8, 8]             128
             ReLU-10             [-1, 64, 8, 8]               0
       BasicBlock-11             [-1, 64, 8, 8]               0
           Conv2d-12             [-1, 64, 8, 8]          36,864
      BatchNorm2d-13             [-1, 64, 8, 8]             128
             ReLU-14             [-1, 64, 8, 8]               0
           Conv2d-15             [-1, 64, 8, 8]          36,864
      BatchNorm2d-16             [-1, 64, 8, 8]             128
             ReLU-17             [-1, 64, 8, 8]               0
       BasicBlock-18             [-1, 64, 8, 8]               0
           Conv2d-19            [-1, 128, 4, 4]          73,728
      BatchNorm2d-20            [-1, 128, 4, 4]             256
             ReLU-21            [-1, 128, 4, 4]               0
           Conv2d-22            [-1, 128, 4, 4]         147,456
      BatchNorm2d-23            [-1, 128, 4, 4]             256
           Conv2d-24            [-1, 128, 4, 4]           8,192
      BatchNorm2d-25            [-1, 128, 4, 4]             256
             ReLU-26            [-1, 128, 4, 4]               0
       BasicBlock-27            [-1, 128, 4, 4]               0
           Conv2d-28            [-1, 128, 4, 4]         147,456
      BatchNorm2d-29            [-1, 128, 4, 4]             256
             ReLU-30            [-1, 128, 4, 4]               0
           Conv2d-31            [-1, 128, 4, 4]         147,456
      BatchNorm2d-32            [-1, 128, 4, 4]             256
             ReLU-33            [-1, 128, 4, 4]               0
       BasicBlock-34            [-1, 128, 4, 4]               0
           Conv2d-35            [-1, 256, 2, 2]         294,912
      BatchNorm2d-36            [-1, 256, 2, 2]             512
             ReLU-37            [-1, 256, 2, 2]               0
           Conv2d-38            [-1, 256, 2, 2]         589,824
      BatchNorm2d-39            [-1, 256, 2, 2]             512
           Conv2d-40            [-1, 256, 2, 2]          32,768
      BatchNorm2d-41            [-1, 256, 2, 2]             512
             ReLU-42            [-1, 256, 2, 2]               0
       BasicBlock-43            [-1, 256, 2, 2]               0
           Conv2d-44            [-1, 256, 2, 2]         589,824
      BatchNorm2d-45            [-1, 256, 2, 2]             512
             ReLU-46            [-1, 256, 2, 2]               0
           Conv2d-47            [-1, 256, 2, 2]         589,824
      BatchNorm2d-48            [-1, 256, 2, 2]             512
             ReLU-49            [-1, 256, 2, 2]               0
       BasicBlock-50            [-1, 256, 2, 2]               0
           Conv2d-51            [-1, 512, 1, 1]       1,179,648
      BatchNorm2d-52            [-1, 512, 1, 1]           1,024
             ReLU-53            [-1, 512, 1, 1]               0
           Conv2d-54            [-1, 512, 1, 1]       2,359,296
      BatchNorm2d-55            [-1, 512, 1, 1]           1,024
           Conv2d-56            [-1, 512, 1, 1]         131,072
      BatchNorm2d-57            [-1, 512, 1, 1]           1,024
             ReLU-58            [-1, 512, 1, 1]               0
       BasicBlock-59            [-1, 512, 1, 1]               0
           Conv2d-60            [-1, 512, 1, 1]       2,359,296
      BatchNorm2d-61            [-1, 512, 1, 1]           1,024
             ReLU-62            [-1, 512, 1, 1]               0
           Conv2d-63            [-1, 512, 1, 1]       2,359,296
      BatchNorm2d-64            [-1, 512, 1, 1]           1,024
             ReLU-65            [-1, 512, 1, 1]               0
       BasicBlock-66            [-1, 512, 1, 1]               0
AdaptiveAvgPool2d-67            [-1, 512, 1, 1]               0
           Linear-68                   [-1, 10]           5,130
================================================================
Total params: 11,181,642
Trainable params: 11,181,642
Non-trainable params: 0
----------------------------------------------------------------
Input size (MB): 0.01
Forward/backward pass size (MB): 1.29
Params size (MB): 42.65
Estimated Total Size (MB): 43.95
----------------------------------------------------------------
None
New trainable parameters are 4924990
----------------------------------------------------------------
        Layer (type)               Output Shape         Param #
================================================================
            Conv2d-1           [-1, 20, 32, 32]           2,940
       BatchNorm2d-2           [-1, 20, 32, 32]              40
              ReLU-3           [-1, 20, 32, 32]               0
         MaxPool2d-4           [-1, 20, 32, 32]               0
            Conv2d-5           [-1, 40, 16, 16]           7,200
       BatchNorm2d-6           [-1, 40, 16, 16]              80
              ReLU-7           [-1, 40, 16, 16]               0
            Conv2d-8           [-1, 40, 16, 16]          14,400
       BatchNorm2d-9           [-1, 40, 16, 16]              80
           Conv2d-10           [-1, 40, 16, 16]             800
      BatchNorm2d-11           [-1, 40, 16, 16]              80
             ReLU-12           [-1, 40, 16, 16]               0
       BasicBlock-13           [-1, 40, 16, 16]               0
           Conv2d-14           [-1, 40, 16, 16]          14,400
      BatchNorm2d-15           [-1, 40, 16, 16]              80
             ReLU-16           [-1, 40, 16, 16]               0
           Conv2d-17           [-1, 40, 16, 16]          14,400
      BatchNorm2d-18           [-1, 40, 16, 16]              80
             ReLU-19           [-1, 40, 16, 16]               0
       BasicBlock-20           [-1, 40, 16, 16]               0
           Conv2d-21           [-1, 40, 16, 16]          14,400
      BatchNorm2d-22           [-1, 40, 16, 16]              80
             ReLU-23           [-1, 40, 16, 16]               0
           Conv2d-24           [-1, 40, 16, 16]          14,400
      BatchNorm2d-25           [-1, 40, 16, 16]              80
             ReLU-26           [-1, 40, 16, 16]               0
       BasicBlock-27           [-1, 40, 16, 16]               0
           Conv2d-28             [-1, 80, 8, 8]          28,800
      BatchNorm2d-29             [-1, 80, 8, 8]             160
             ReLU-30             [-1, 80, 8, 8]               0
           Conv2d-31             [-1, 80, 8, 8]          57,600
      BatchNorm2d-32             [-1, 80, 8, 8]             160
           Conv2d-33             [-1, 80, 8, 8]           3,200
      BatchNorm2d-34             [-1, 80, 8, 8]             160
             ReLU-35             [-1, 80, 8, 8]               0
       BasicBlock-36             [-1, 80, 8, 8]               0
           Conv2d-37             [-1, 80, 8, 8]          57,600
      BatchNorm2d-38             [-1, 80, 8, 8]             160
             ReLU-39             [-1, 80, 8, 8]               0
           Conv2d-40             [-1, 80, 8, 8]          57,600
      BatchNorm2d-41             [-1, 80, 8, 8]             160
             ReLU-42             [-1, 80, 8, 8]               0
       BasicBlock-43             [-1, 80, 8, 8]               0
           Conv2d-44             [-1, 80, 8, 8]          57,600
      BatchNorm2d-45             [-1, 80, 8, 8]             160
             ReLU-46             [-1, 80, 8, 8]               0
           Conv2d-47             [-1, 80, 8, 8]          57,600
      BatchNorm2d-48             [-1, 80, 8, 8]             160
             ReLU-49             [-1, 80, 8, 8]               0
       BasicBlock-50             [-1, 80, 8, 8]               0
           Conv2d-51            [-1, 120, 8, 8]          86,400
      BatchNorm2d-52            [-1, 120, 8, 8]             240
             ReLU-53            [-1, 120, 8, 8]               0
           Conv2d-54            [-1, 120, 8, 8]         129,600
      BatchNorm2d-55            [-1, 120, 8, 8]             240
           Conv2d-56            [-1, 120, 8, 8]           9,600
      BatchNorm2d-57            [-1, 120, 8, 8]             240
             ReLU-58            [-1, 120, 8, 8]               0
       BasicBlock-59            [-1, 120, 8, 8]               0
           Conv2d-60            [-1, 120, 8, 8]         129,600
      BatchNorm2d-61            [-1, 120, 8, 8]             240
             ReLU-62            [-1, 120, 8, 8]               0
           Conv2d-63            [-1, 120, 8, 8]         129,600
      BatchNorm2d-64            [-1, 120, 8, 8]             240
             ReLU-65            [-1, 120, 8, 8]               0
       BasicBlock-66            [-1, 120, 8, 8]               0
           Conv2d-67            [-1, 120, 4, 4]         129,600
      BatchNorm2d-68            [-1, 120, 4, 4]             240
             ReLU-69            [-1, 120, 4, 4]               0
           Conv2d-70            [-1, 120, 4, 4]         129,600
      BatchNorm2d-71            [-1, 120, 4, 4]             240
           Conv2d-72            [-1, 120, 4, 4]          14,400
      BatchNorm2d-73            [-1, 120, 4, 4]             240
             ReLU-74            [-1, 120, 4, 4]               0
       BasicBlock-75            [-1, 120, 4, 4]               0
           Conv2d-76            [-1, 140, 4, 4]         151,200
      BatchNorm2d-77            [-1, 140, 4, 4]             280
             ReLU-78            [-1, 140, 4, 4]               0
           Conv2d-79            [-1, 140, 4, 4]         176,400
      BatchNorm2d-80            [-1, 140, 4, 4]             280
           Conv2d-81            [-1, 140, 4, 4]          16,800
      BatchNorm2d-82            [-1, 140, 4, 4]             280
             ReLU-83            [-1, 140, 4, 4]               0
       BasicBlock-84            [-1, 140, 4, 4]               0
           Conv2d-85            [-1, 140, 4, 4]         176,400
      BatchNorm2d-86            [-1, 140, 4, 4]             280
             ReLU-87            [-1, 140, 4, 4]               0
           Conv2d-88            [-1, 140, 4, 4]         176,400
      BatchNorm2d-89            [-1, 140, 4, 4]             280
             ReLU-90            [-1, 140, 4, 4]               0
       BasicBlock-91            [-1, 140, 4, 4]               0
           Conv2d-92            [-1, 140, 4, 4]         176,400
      BatchNorm2d-93            [-1, 140, 4, 4]             280
             ReLU-94            [-1, 140, 4, 4]               0
           Conv2d-95            [-1, 140, 4, 4]         176,400
      BatchNorm2d-96            [-1, 140, 4, 4]             280
             ReLU-97            [-1, 140, 4, 4]               0
       BasicBlock-98            [-1, 140, 4, 4]               0
           Conv2d-99            [-1, 160, 4, 4]         201,600
     BatchNorm2d-100            [-1, 160, 4, 4]             320
            ReLU-101            [-1, 160, 4, 4]               0
          Conv2d-102            [-1, 160, 4, 4]         230,400
     BatchNorm2d-103            [-1, 160, 4, 4]             320
          Conv2d-104            [-1, 160, 4, 4]          22,400
     BatchNorm2d-105            [-1, 160, 4, 4]             320
            ReLU-106            [-1, 160, 4, 4]               0
      BasicBlock-107            [-1, 160, 4, 4]               0
          Conv2d-108            [-1, 160, 4, 4]         230,400
     BatchNorm2d-109            [-1, 160, 4, 4]             320
            ReLU-110            [-1, 160, 4, 4]               0
          Conv2d-111            [-1, 160, 4, 4]         230,400
     BatchNorm2d-112            [-1, 160, 4, 4]             320
            ReLU-113            [-1, 160, 4, 4]               0
      BasicBlock-114            [-1, 160, 4, 4]               0
          Conv2d-115            [-1, 160, 2, 2]         230,400
     BatchNorm2d-116            [-1, 160, 2, 2]             320
            ReLU-117            [-1, 160, 2, 2]               0
          Conv2d-118            [-1, 160, 2, 2]         230,400
     BatchNorm2d-119            [-1, 160, 2, 2]             320
          Conv2d-120            [-1, 160, 2, 2]          25,600
     BatchNorm2d-121            [-1, 160, 2, 2]             320
            ReLU-122            [-1, 160, 2, 2]               0
      BasicBlock-123            [-1, 160, 2, 2]               0
          Conv2d-124            [-1, 180, 2, 2]         259,200
     BatchNorm2d-125            [-1, 180, 2, 2]             360
            ReLU-126            [-1, 180, 2, 2]               0
          Conv2d-127            [-1, 180, 2, 2]         291,600
     BatchNorm2d-128            [-1, 180, 2, 2]             360
          Conv2d-129            [-1, 180, 2, 2]          28,800
     BatchNorm2d-130            [-1, 180, 2, 2]             360
            ReLU-131            [-1, 180, 2, 2]               0
      BasicBlock-132            [-1, 180, 2, 2]               0
          Conv2d-133            [-1, 200, 2, 2]         324,000
     BatchNorm2d-134            [-1, 200, 2, 2]             400
            ReLU-135            [-1, 200, 2, 2]               0
          Conv2d-136            [-1, 200, 2, 2]         360,000
     BatchNorm2d-137            [-1, 200, 2, 2]             400
          Conv2d-138            [-1, 200, 2, 2]          36,000
     BatchNorm2d-139            [-1, 200, 2, 2]             400
            ReLU-140            [-1, 200, 2, 2]               0
      BasicBlock-141            [-1, 200, 2, 2]               0
AdaptiveAvgPool2d-142            [-1, 200, 1, 1]               0
          Linear-143                   [-1, 10]           2,010
================================================================
Total params: 4,924,990
Trainable params: 4,924,990
Non-trainable params: 0
----------------------------------------------------------------
Input size (MB): 0.01
Forward/backward pass size (MB): 5.25
Params size (MB): 18.79
Estimated Total Size (MB): 24.04
----------------------------------------------------------------
Summary second time None
…
